Transfering-Model/models/net.pt (torch, 110247 bytes, 3 tensors)

weight f4 [256, 100]
0	0xbd2250d3	-0.03962786
1	0x3cf5db13	0.03001169
2	0x3d814287	0.06311517
3	0xbd159db7	-0.03652736
4	0x3dcbc66d	0.09949956
5	0x3d4c283a	0.04984305
6	0xbc7268e7	-0.0147955185
7	0xbd47b680	-0.04875803
8	0x3da29b88	0.079398215
9	0x3d777a6a	0.060419478
10	0xbd0573c0	-0.03258109
11	0x3d8acd08	0.06777388
12	0x3d32dcb0	0.043667495
13	0x3da771c8	0.08175999
14	0x3cd1e613	0.025622403
15	0x3bccd9b3	0.0062515377
16	0xbd4c7ba0	-0.049922585
17	0xbceab1a7	-0.028649164
18	0x3d656f83	0.05601455
19	0x3d7b9983	0.061425697
20	0xbc6e5a73	-0.014547932
21	0xbd81920d	-0.06326685
22	0xbd9fcc60	-0.07802653
23	0xbd831b3f	-0.06401681
24	0x3ced8333	0.028993225
25	0x3d8eb36b	0.06967815
26	0xbda44077	-0.08020108
27	0x3ab94a00	0.0014136434
28	0x3d11898a	0.035531558
29	0xbc2ad673	-0.010427105
30	0xbcbd9813	-0.023143804
31	0xbc126a00	-0.008936405
32	0xbdcc2b55	-0.099692024
33	0x3d2b07aa	0.041755356
34	0xbcded3d3	-0.027200615
35	0xbc9c4f00	-0.019080639
36	0xbd9d2738	-0.07673496
37	0x3b7a1100	0.0038157105
38	0xbc2433e7	-0.01002214
39	0xbd93ad57	-0.07210796
40	0xbd0fae30	-0.035078228
41	0x3aa5e133	0.0012655616
42	0xbc5bebc0	-0.013422906
43	0xbdc4a3d0	-0.09601557
44	0xbdb1355a	-0.08652754
45	0xbd942fbb	-0.07235666
46	0x3db0d15b	0.086336814
47	0x3c53c48d	0.012925279
48	0x3da8ec53	0.082482
49	0x3dc9bb42	0.0985017
50	0xbc85e1e0	-0.016343057
51	0x3d562b2a	0.05228726
52	0xbdb0e16f	-0.08636748
53	0xbcb1a6a7	-0.021685911
54	0x3da76bdd	0.0817487
55	0x3cc2644d	0.023729468
56	0x3d88eca0	0.06685758
57	0xbd0a8afa	-0.033823945
58	0xbd35929d	-0.044329274
59	0x3aa88ccd	0.0012859345
60	0x3dc70513	0.09717765
61	0xbae8ae67	-0.0017752171
62	0xbdc14ddb	-0.09438678
63	0x3d1e5fb7	0.0386655
64	0xbd155dfa	-0.036466576
65	0x3dc86f60	0.09786868
66	0xbdc829ff	-0.09773635
67	0xbd4ff7e0	-0.0507735
68	0xbd5dc817	-0.0541459
69	0xb830999a	-4.2104723e-05
70	0x3cb2216d	0.021744454
71	0xbdcc95c7	-0.09989505
72	0x3cee3e33	0.029082393
73	0x3d51e213	0.05124099
74	0x3d561610	0.052267134
75	0xbcd73987	-0.026272548
76	0x3cd08440	0.025453687
77	0xbda34e37	-0.07973903
78	0x3d84ccea	0.06484397
79	0x3d955b9d	0.072928645
80	0xbdbde658	-0.0927245
81	0x3d2beaaa	0.04197184
82	0xbd5da53d	-0.05411266
83	0xbc81f9d3	-0.015866196
84	0x3da84e37	0.08218043
85	0x3dad54fb	0.08463474
86	0xbb9fd133	-0.0048772334
87	0x3d9d829b	0.07690927
88	0x3d80c59d	0.06287692
89	0xbd828cc8	-0.06374508
90	0xbdb5087a	-0.088395074
91	0x3d01f6da	0.031729557
92	0x3d8f12a0	0.06985974
93	0xbb295900	-0.0025840402
94	0xbd13b873	-0.036064576
95	0xbcb0134d	-0.021493578
96	0xbbe2ca33	-0.0069210767
97	0x3c300b0d	0.010744822
98	0x3cf91fda	0.030410696
99	0x3d52bd13	0.051449846
100	0x3dbb6453	0.09149995
101	0x3d93068f	0.07178985
102	0x3aec3267	0.0018020392
103	0x3dcba698	0.099438846
104	0xbd4e9377	-0.050433602
105	0xbd3eafd7	-0.046554413
106	0xbcc6f05a	-0.02428453
107	0x3cd4b7a0	0.025966465
108	0xbcdfe97a	-0.02733301
109	0x3d32e840	0.043678522
110	0xbcbfd94d	-0.023419047
111	0xbbff8367	-0.007797647
112	0xbd620aca	-0.05518607
113	0x3d8e519a	0.06949158
114	0x3d10bc1d	0.03533565
115	0xbb98e380	-0.004665792
116	0x3d16093d	0.036629904
117	0xbcb9d940	-0.0226866
118	0x3d7a8cad	0.061169315
119	0x3bb37380	0.005476415
120	0x3dc5d170	0.09659088
121	0x3d47f787	0.048820045
122	0x3c9ffb1a	0.019528914
123	0xbda0b6c5	-0.078473605
124	0x3cf6644d	0.030077124
125	0xbd1dbb33	-0.038508605
126	0x3c322427	0.010872877
127	0xbdb05877	-0.08610623
128	0x3caa1dad	0.020766104
129	0x3cf9db87	0.030500187
130	0x3dab0a00	0.08351517
131	0x3cbcfe67	0.023070527
132	0xbdc1d238	-0.09463924
133	0xbd8193a5	-0.06326989
134	0x3c93c7f3	0.01803968
135	0x3dbc12f7	0.09183305
136	0x3c68d88d	0.014211786
137	0x3d1d70a3	0.038437497
138	0x3b215d33	0.0024622201
139	0x3d5fc5ea	0.054632105
140	0x3d3795d7	0.044820633
141	0x3c1cff9a	0.009582425
142	0x3c688473	0.014191735
143	0x3dbb6d2a	0.09151681
144	0xbdb7653b	-0.08954855
145	0x3d0ef087	0.034897354
146	0x3d04596a	0.032311834
147	0xbd2563bd	-0.04037832
148	0xbdb6664f	-0.089062326
149	0x3c1d2840	0.009592116
150	0xbd4e601a	-0.05038462
151	0xbda8b66a	-0.08237918
152	0xbda7795d	-0.08177445
153	0x3d9ee04f	0.07757627
154	0x3d85f442	0.06540729
155	0xbd9ce2db	-0.07660457
156	0x3cd6fe40	0.026244283
157	0x3d24be07	0.040220287
158	0x3c8be467	0.017076684
159	0x3d4b2e1a	0.049604513
160	0xbdb6b13f	-0.08920526
161	0x3dba4185	0.09094528
162	0xbbe3f61a	-0.006956828
163	0x3d80f573	0.06296816
164	0x3daf8207	0.085697226
165	0x3dbed4dd	0.09317944
166	0xbd49fb07	-0.049311664
167	0x3ca3826d	0.019959653
168	0xbcf1301a	-0.029441882
169	0xbd18dbb7	-0.03731891
170	0x3da2cfda	0.07949801
171	0xbcafcd53	-0.02146021
172	0x3dc4c6b7	0.09608214
173	0xbdbb6f2b	-0.09152063
174	0x3cbf11f3	0.023323989
175	0xbd7984e3	-0.060917746
176	0xbda827d2	-0.0821072
177	0x3d243a47	0.04009464
178	0xbcc4de00	-0.02403164
179	0xbc3b079a	-0.011415387
180	0xbdb1e338	-0.08685917
181	0xbdb5e030	-0.08880651
182	0xbb78d767	-0.0037970187
183	0x3d7f01cd	0.062257577
184	0x3d24a2fd	0.0401945
185	0xbd0702b7	-0.032961573
186	0x3d8c0f12	0.06838812
187	0x3d7aa32d	0.061190773
188	0x3d444567	0.04791775
189	0xbc970a60	-0.018437564
190	0xbda91810	-0.08256543
191	0xbc607f4d	-0.013702226
192	0x3d75764d	0.059927274
193	0x3d7fea70	0.062479436
194	0x3d876827	0.06611662
195	0x3d8bb852	0.06822266
196	0xbdad13bd	-0.084510304
197	0xbd911a50	-0.07085097
198	0x3d801992	0.06254877
199	0xbd932f0b	-0.07186707
200	0x3da2d048	0.07949883
201	0x3d60eff0	0.054916322
202	0xbd98b838	-0.07457012
203	0xbca7ab0d	-0.020467306
204	0xbd7dc450	-0.061954796
205	0x3da43017	0.08016985
206	0xbd25bfe3	-0.0404662
207	0x3ccd63cd	0.025072003
208	0xbc8c095a	-0.017094303
209	0x3d1212ba	0.03566239
210	0xbd0e4d7d	-0.034741867
211	0xbd4a68ca	-0.04941634
212	0xbdbff96b	-0.093737446
213	0xbd977bd8	-0.07396668
214	0x3daf2bab	0.08553251
215	0x3d2916ba	0.04128144
216	0x3be05a9a	0.006846738
217	0xbdb1eacd	-0.08687363
218	0xbd3444a0	-0.04401076
219	0x3d342f67	0.04399052
220	0x3db188df	0.08668684
221	0x3d32a960	0.04361856
222	0x3dc7e425	0.09760312
223	0x3d8136ff	0.06309318
224	0xbcc9dd33	-0.024641609
225	0x3a1b5333	0.00059251784
226	0xbdb47d43	-0.08812954
227	0x3d35bf77	0.04437205
228	0xbd91765a	-0.07102652
229	0x3d8b20d2	0.06793369
230	0xbdcc1aed	-0.09966073
231	0x3c832fb3	0.016013956
232	0x3d908d13	0.07058158
233	0x3c08d400	0.008351326
234	0x3d8a979d	0.06767199
235	0xbd36bc5d	-0.04461323
236	0x3da08515	0.078378834
237	0xbd449dca	-0.048002042
238	0xbb9ea833	-0.0048418283
239	0xbd9a4607	-0.07532888
240	0xbd44ae87	-0.048018005
241	0x3db6d337	0.08927005
242	0xbdb9d5b3	-0.09073963
243	0xbdbe4827	-0.09291106
244	0x3ca833b3	0.020532465
245	0x3dc979ab	0.098376594
246	0x3c1225cd	0.008920145
247	0xbd02d0d7	-0.031937446
248	0x3d5a48f7	0.05329224
249	0x3d30f3e0	0.043201327
250	0x3d2f6653	0.042822193
251	0xbd05f260	-0.03270185
252	0xbcd125ba	-0.025530685
253	0x3c9196e7	0.017772151
254	0x3d95b63a	0.073101476
255	0xbcf594a7	-0.02997811

bias f4 [256]
0	0xbc62295a	-0.013803804
1	0xbd8ae178	-0.06781286
2	0xbdb13f18	-0.08654612
3	0x3dc03c35	0.093864836
4	0xbdca5680	-0.0987978
5	0xbdbcc1ea	-0.09216674
6	0x3dc346bb	0.09534975
7	0xbcae5e0d	-0.021285081
8	0xbd85d2db	-0.06534358
9	0xbbdc6867	-0.006726313
10	0x3d9d70c5	0.07687525
11	0xbd865e8f	-0.06561004
12	0x3c49dfc0	0.012321413
13	0xbd5edb93	-0.05440862
14	0xbda299bf	-0.07939481
15	0xbc1228f3	-0.008920896
16	0xbb5e5667	-0.0033926012
17	0xbdb2f498	-0.08738059
18	0xbb883e00	-0.0041577816
19	0x3d5b965d	0.053610194
20	0x3c916893	0.01775006
21	0x3d49170d	0.04909425
22	0xbd17b1fd	-0.037034977
23	0xbd9e4692	-0.07728304
24	0x3d03c703	0.032172214
25	0xbcfcf9a0	-0.03088075
26	0x3ccb142d	0.024789894
27	0x3c3f9fc0	0.011695802
28	0x3c32b19a	0.010906601
29	0xbb877fcd	-0.004135108
30	0xbda5df0a	-0.08099182
31	0x3c885e53	0.01664654
32	0x3db63ccb	0.08898314
33	0x3b185c00	0.0023248196
34	0x3d0dd313	0.034625124
35	0xbd97351b	-0.07383176
36	0x3d075f3d	0.03304981
37	0x3d5b5480	0.053547382
38	0x3d998405	0.07495884
39	0x3d9e68cb	0.077348314
40	0xbd2492e3	-0.040179145
41	0x3dbce52f	0.09223401
42	0x3d0116a3	0.03151573
43	0xbcc275ad	-0.023737753
44	0x3d5c1377	0.0537295
45	0xbd66259d	-0.056188215
46	0xbdb642d5	-0.08899466
47	0x3cf6af5a	0.030112911
48	0xbc3c658d	-0.011498821
49	0xbdc71b25	-0.09721974
50	0xbd00adf7	-0.031415906
51	0xbda2e14d	-0.07953129
52	0x3d4497ad	0.04799621
53	0xbdba32ba	-0.090917066
54	0x3d21f5ba	0.039540984
55	0x3ca4d813	0.020122563
56	0x3dcbabb7	0.099448614
57	0xbdb04bd2	-0.086082116
58	0x3ce24ff3	0.027626013
59	0x3d274580	0.040837765
60	0x3dca503f	0.09878587
61	0xbd493e5d	-0.04913174
62	0x3d1d9e50	0.038481057
63	0xbc93f6ed	-0.01806208
64	0x3d9b6b7a	0.07588859
65	0xbd815dd0	-0.063167214
66	0xbd524c23	-0.05134214
67	0xbd522653	-0.05130608
68	0x3c9e6f8d	0.019340301
69	0xbd4ae8f7	-0.04953858
70	0x3d2ca6fa	0.04215143
71	0x3b41ee67	0.0029591562
72	0xbd319a3d	-0.043359984
73	0xbcec9c73	-0.028883195
74	0xbd2ce6ba	-0.042212225
75	0x3d5eb20a	0.05436901
76	0x3cfed720	0.031108439
77	0x3d42c463	0.04755057
78	0xbc7344b3	-0.014847922
79	0x3cea78da	0.02862208
80	0x3c8db21a	0.01729684
81	0xbd9284df	-0.071542494
82	0x3d72190d	0.05910592
83	0x3d9a11c2	0.07522918
84	0xbdc8bd30	-0.0980171
85	0xbc02931a	-0.007969642
86	0xbbce17e7	-0.0062894705
87	0x3d179c2a	0.037014164
88	0xbc0afde7	-0.008483387
89	0x3d82aed0	0.06380999
90	0x3d7fd070	0.06245464
91	0x3da17378	0.07883352
92	0x3d9a2bf0	0.07527912
93	0x3cc506d3	0.024051106
94	0xbc5b3d67	-0.013381339
95	0xbd3a9fb0	-0.045562446
96	0x3dc51d95	0.09624783
97	0x3d765303	0.06013776
98	0xbd93cc78	-0.07216734
99	0x3d2ce59a	0.042211153
100	0xbd85be8b	-0.06530484
101	0xbd3e2d63	-0.046430003
102	0xbdaf52c0	-0.08560705
103	0x3ce4dcc7	0.027937306
104	0xbd3e0c27	-0.046398308
105	0x3d341d4a	0.043973245
106	0xbd9ec8eb	-0.07753166
107	0x3da57f7a	0.08080955
108	0x3d2ce92d	0.04221456
109	0xbd591057	-0.0529941
110	0xbda9d08a	-0.08291729
111	0x3d80105d	0.06253121
112	0x3d5453c3	0.051837694
113	0xbd3cf050	-0.046127617
114	0xbd12a61a	-0.035802938
115	0x3c98faa0	0.018674195
116	0x3db3c70d	0.087782
117	0x3ce49b1a	0.02790599
118	0x3d759370	0.05995506
119	0x3d7210f7	0.05909821
120	0x3cd4c027	0.025970532
121	0xbd5441e3	-0.051820647
122	0xbd5b7387	-0.053576972
123	0xbdafd480	-0.08585453
124	0xbd011ed3	-0.031523537
125	0x3c76dcda	0.015067304
126	0x3d6a2a10	0.05716902
127	0x3cc2fded	0.023802722
128	0x3ce9ea3a	0.02855407
129	0x3b83b233	0.0040190457
130	0x3ba58dcd	0.0050523044
131	0xbd8bf590	-0.06833947
132	0x3dbf2ff8	0.09335321
133	0xbc8bb020	-0.017051756
134	0xbcbfc740	-0.02341044
135	0xbdbc2d4f	-0.091883294
136	0xbd5660b7	-0.05233833
137	0xbd516217	-0.051118936
138	0x3d0ac9b3	0.03388376
139	0xbdc51fff	-0.096252434
140	0x3cd902d3	0.026490605
141	0x3dac998b	0.084277235
142	0xbb925200	-0.0044653416
143	0xbcdb34a0	-0.026758492
144	0xbac0c667	-0.0014707566
145	0xbd05f230	-0.03270167
146	0xbcdcc01a	-0.02694707
147	0x3d92a125	0.07159642
148	0xbb6b6633	-0.003591907
149	0x3cff03da	0.031129766
150	0xbd17d087	-0.0370641
151	0xbd82f558	-0.06394452
152	0xbd98f707	-0.07468992
153	0x3d5b42d7	0.05353054
154	0xbc8e3c7a	-0.017362822
155	0x3d009f7d	0.0314021
156	0x3a09b0cd	0.00052524806
157	0xbd248203	-0.04016305
158	0x3d141c83	0.036160003
159	0x3c51f08d	0.012813699
160	0xbd306197	-0.04306182
161	0xbcdcbf9a	-0.026946831
162	0x3db2e8c0	0.087358
163	0x3d68ef07	0.05686858
164	0xbd4f47cd	-0.050605584
165	0xbd62adaa	-0.0553414
166	0x3d983e9b	0.07433816
167	0x3cb40b80	0.02197814
168	0x3c452327	0.012032307
169	0x3da1d525	0.07901982
170	0x3cfae960	0.03062886
171	0x3cda3ed3	0.026641285
172	0x3d90c500	0.07068825
173	0x3ccbc9da	0.024876524
174	0x3d3f343a	0.046680667
175	0x3cac0167	0.020996762
176	0x3db3f3f3	0.08786764
177	0xbd68a127	-0.05679431
178	0xbda61e85	-0.0811129
179	0x3c71c2f3	0.014755952
180	0x3db549ad	0.08851943
181	0x3c98604d	0.018600607
182	0x3d348d57	0.044080105
183	0x3ca9c3a7	0.020723177
184	0x3cf96040	0.030441403
185	0xbc4b80e7	-0.012420869
186	0x3d92b6d8	0.07163781
187	0x3d0a1720	0.03371346
188	0x3c268e4d	0.010165763
189	0x3d50c143	0.05096556
190	0x3dc468d8	0.0959031
191	0x3d205a57	0.039148655
192	0xbd098467	-0.033573534
193	0xbd0959a0	-0.03353274
194	0x3d5f39dd	0.054498542
195	0xbcfde587	-0.030993236
196	0x3da33003	0.07968142
197	0x3d00c490	0.031437457
198	0xbd0ad33d	-0.03389286
199	0x3d9205b2	0.071299925
200	0xbda08468	-0.078377545
201	0x3d651f50	0.055938065
202	0xbc8d47ba	-0.017246116
203	0x3dc491a5	0.09598092
204	0x3d0c73ba	0.034290053
205	0xbd18407a	-0.037170865
206	0xbd8c0c72	-0.06838311
207	0x3b85039a	0.004059267
208	0x3c0cee5a	0.008601749
209	0xbcdf2060	-0.027237117
210	0xbd983675	-0.07432262
211	0xbd00699a	-0.03135071
212	0xbd158780	-0.036506176
213	0xbdad073d	-0.08448646
214	0x3cd82187	0.026383175
215	0x3dc58193	0.09643855
216	0xbbb6b900	-0.005576253
217	0x3c67ae73	0.014140713
218	0x3d686157	0.056733456
219	0x3d988a05	0.074482
220	0xbdb1b8a0	-0.086777925
221	0xbcc7944d	-0.024362708
222	0x3da2ef9d	0.07955859
223	0x3db6d79a	0.089278415
224	0x3dcb3370	0.0992192
225	0x3d8ff128	0.07028419
226	0x3cd40ea0	0.02588588
227	0xbdb639d2	-0.08897747
228	0xbc8e21e0	-0.017350137
229	0x3da543f0	0.08069599
230	0x3dac554f	0.08414709
231	0xbdbecd35	-0.09316484
232	0x3dc68773	0.09693804
233	0xbc323367	-0.010876513
234	0xbd0145ea	-0.031560816
235	0xbd9b8290	-0.07593262
236	0xbdc1824a	-0.09448679
237	0xbd9c1c82	-0.07622625
238	0xbd2e4c8d	-0.042553473
239	0x3da482f3	0.08032789
240	0xbcb5fe07	-0.022215856
241	0x3dc16dcd	0.09444771
242	0x3b466c9a	0.0030277134
243	0xbd1ae54d	-0.037816335
244	0x3cc0cc00	0.023534775
245	0x3b856467	0.004070807
246	0xbd68b937	-0.05681726
247	0x3c29d09a	0.010364676
248	0xbcfea4a7	-0.031084372
249	0xbd87021a	-0.06592198
250	0xbd34928d	-0.044085074
251	0x3d1e8513	0.03870113
252	0xbcdd4647	-0.02701105
253	0x3d89d55f	0.067301504
254	0xbcb2f15a	-0.021843601
255	0xbb41679a	-0.0029511214

weight f4 [1, 256]
0	0xbd790da6	-0.06080403
1	0x3d285eda	0.041106082
2	0xbcea9154	-0.028633751
3	0x3c973d48	0.018461838
4	0xbd756f68	-0.0599207
5	0x3c1f3620	0.009717494
6	0xbcb07a24	-0.021542616
7	0xbd1d3f86	-0.03839066
8	0x3cbe226c	0.023209773
9	0x3d447402	0.047962196
10	0xbd5f0596	-0.054448687
11	0x3d734d54	0.059399918
12	0xbd1a24a4	-0.0376326
13	0x3c1b95e8	0.00949619
14	0xbb1aec00	-0.0023639202
15	0xbd7bb086	-0.061447643
16	0x3b922af0	0.004460685
17	0xbd09ea54	-0.03367074
18	0x3ce419a0	0.02784425
19	0xbc25ead8	-0.010126792
20	0xbb8f40d0	-0.00437174
21	0xbd0a1d32	-0.03371925
22	0x3d09c264	0.03363265
23	0x3cea368c	0.028590463
24	0xbd0be7ec	-0.034156725
25	0xbd1569ea	-0.03647796
26	0x3d593902	0.053032883
27	0xbc6a1850	-0.014288023
28	0xbc000a00	-0.007814884
29	0xbc962084	-0.018326052
30	0xbd4b9a88	-0.04970792
31	0xbd386cd2	-0.045025654
32	0xbc7a37b0	-0.015272066
33	0x3d43508e	0.047684245
34	0xbc51a970	-0.012796745
35	0x3d54ffbc	0.0520017
36	0xbd5bfb90	-0.053706706
37	0x3d32bf9c	0.043639764
38	0xbd2c4f82	-0.042068012
39	0xbc9472c4	-0.01812113
40	0xbcf07210	-0.029351264
41	0x3d4a82e8	0.04944125
42	0x3985a500	0.0002549067
43	0x3d280480	0.041019917
44	0xbc728cc8	-0.014804073
45	0x3c9f3bcc	0.019437693
46	0x3b7c9440	0.0038540512
47	0xbd5c36fa	-0.053763367
48	0x3c75f878	0.015012853
49	0xbd78f7de	-0.06078326
50	0x3d166d48	0.036725312
51	0x3ce080b8	0.027405128
52	0xbb649580	-0.0034879148
53	0x3d24ea36	0.040262423
54	0xbd3769c4	-0.0447786
55	0x3d7a6b3e	0.06113743
56	0x3d16f882	0.03685809
57	0xbcd501b0	-0.026001781
58	0x3d280f44	0.041030183
59	0x3d421d30	0.047391117
60	0xbb4360e0	-0.002981238
61	0x3d7152a0	0.058916688
62	0x3ad9abc0	0.0016606972
63	0x3d1ee40e	0.03879171
64	0xbc99ecf0	-0.018789738
65	0x3bfc92e0	0.0077079386
66	0x3bae6090	0.0053215697
67	0x3c555cd0	0.0130226165
68	0x3bb280a0	0.005447462
69	0x3d502b82	0.050822742
70	0x3c7ce360	0.01543507
71	0xbb969590	-0.004595466
72	0xbc3d60c8	-0.011558719
73	0x3d6c08b0	0.057625473
74	0xbd1c41fc	-0.038148865
75	0xbc6559f8	-0.013998501
76	0x3d777a32	0.06041927
77	0x3d06abf6	0.03287884
78	0x3cd29074	0.025703646
79	0xbc55e268	-0.013054468
80	0xbccb1134	-0.024788477
81	0xbd4eaf2c	-0.050460026
82	0x3c8574dc	0.016291074
83	0xbd3204aa	-0.04346148
84	0xbd2eca64	-0.042673483
85	0xbd365ede	-0.044524066
86	0xbd28d300	-0.04121685
87	0x3c917714	0.017756976
88	0xbd227ff2	-0.0396728
89	0x3d5aeb12	0.053446837
90	0xbd526e10	-0.051374495
91	0x3ca318b4	0.01990924
92	0x3d330162	0.04370249
93	0x3c94f160	0.018181503
94	0xbd3363f8	-0.04379651
95	0x3d652a08	0.055948287
96	0xbd7f6554	-0.062352493
97	0xbd103166	-0.03520336
98	0xbb30fee0	-0.0027007386
99	0x3d18d508	0.037312537
100	0x3d4735e2	0.04863537
101	0xbd3d1dd4	-0.046171024
102	0xbd5bc1ac	-0.053651497
103	0x3caaedc8	0.020865336
104	0x3cc84d0c	0.024450801
105	0x3d5f8fc0	0.05458045
106	0xbb306f60	-0.0026921853
107	0xbcaa0734	-0.020755388
108	0x3c1e5c98	0.009665631
109	0x3c4e5620	0.012593776
110	0x3d3ed4d2	0.04658968
111	0x3c18e728	0.009332456
112	0x3d16d5be	0.036824934
113	0x3d52dc9e	0.05147993
114	0x3d0698c0	0.032860518
115	0x3d59866e	0.053106718
116	0x3cd57f88	0.026061788
117	0x3c904668	0.017611697
118	0x3b2c79a0	0.0026317611
119	0xbd659d1e	-0.05605804
120	0xbc8b9be0	-0.0170421
121	0xbce31634	-0.027720548
122	0x3cabaa48	0.02095522
123	0xbc8d7008	-0.017265335
124	0x3d0edc92	0.03487832
125	0xbb4c90a0	-0.0031214133
126	0x3ce1aa74	0.027547099
127	0x3d2dcbd4	0.042430714
128	0x3d6835e2	0.05669201
129	0xbd1d0e0c	-0.038343474
130	0x3cafc124	0.021454401
131	0xbcf402a8	-0.029786423
132	0xbc1635c0	-0.009168088
133	0x3c683ab0	0.014174148
134	0x3cc25644	0.023722775
135	0xbd06d270	-0.032915533
136	0x3d150696	0.036383234
137	0xbca8f2cc	-0.020623587
138	0x3d3bab8e	0.045817904
139	0x3d470506	0.048588775
140	0xb9a7be00	-0.00031994283
141	0x3d3bf4f6	0.04588791
142	0x3c1b0780	0.009462237
143	0xbc3a3720	-0.011365682
144	0xbc8bb6d4	-0.017054953
145	0xbd7b2502	-0.06131459
146	0x3cb8cfdc	0.022560053
147	0x3d703dec	0.058652803
148	0xbd3fef8e	-0.046859317
149	0x3c2d46e0	0.01057598
150	0x3bf84890	0.0075770095
151	0xbb9e3660	-0.0048282593
152	0xbc297730	-0.010343358
153	0xbd23b228	-0.039964825
154	0x3d0d1a56	0.034448944
155	0x3d3f557c	0.046712384
156	0xbd08659e	-0.033300035
157	0xbd4295d4	-0.04750617
158	0x3d423240	0.047411203
159	0xbcf6e988	-0.030140653
160	0x3cc5a718	0.024127528
161	0x3c46ad08	0.012126215
162	0x3d20d1f0	0.039262712
163	0xbbe4e470	-0.0069852397
164	0xbd5b1fc6	-0.0534971
165	0x3cbb1804	0.0228386
166	0xbc3eb210	-0.011639133
167	0x3d78f1b4	0.06077738
168	0x3ca898dc	0.020580702
169	0x3d03b60c	0.032156035
170	0x3c9cbd30	0.01913318
171	0xbd5ab91e	-0.053399198
172	0x3a2a6280	0.0006499663
173	0xbd17b5fa	-0.03703878
174	0x3cccc464	0.02499599
175	0x3d213952	0.039361306
176	0xbd46ab4c	-0.048503205
177	0x3bb32670	0.0054672286
178	0x3beac3e0	0.0071644634
179	0x3c7f9f20	0.015601903
180	0xbd02e85a	-0.03195987
181	0x3c72d2d8	0.014820777
182	0x3d6d18de	0.057885043
183	0xbba6c740	-0.0050896704
184	0x3b821eb0	0.0039709434
185	0xbc3facd0	-0.011698917
186	0x3ca48c5c	0.02008646
187	0xbd44729e	-0.04796087
188	0x3c74fad0	0.0149523765
189	0xbcba3e50	-0.022734791
190	0xbca05b8c	-0.019574903
191	0xbbad88d0	-0.0052958503
192	0xbce39770	-0.027782172
193	0xbcd2b89c	-0.025722794
194	0xbd6de53e	-0.05807995
195	0xbd36d67a	-0.044638135
196	0xbcfca694	-0.03084115
197	0xbd698552	-0.05701191
198	0xbd794cee	-0.06086438
199	0xbceb8e9c	-0.028754525
200	0xbcfc4e84	-0.030799158
201	0x3d1d07be	0.03833746
202	0x3d4ade3e	0.049528353
203	0xbc337648	-0.010953493
204	0x3cf1d2d8	0.029519483
205	0xbc85a658	-0.01631467
206	0xbc422b18	-0.011851095
207	0xbd7b1508	-0.061299354
208	0xbc6469f0	-0.013941273
209	0xbcadbd1c	-0.021208338
210	0xbd2d9a10	-0.042383254
211	0xbd5db156	-0.0541242
212	0xbd16ca7e	-0.036814205
213	0xbab9a980	-0.0014164895
214	0x3ca490cc	0.020088576
215	0xbd3e93b2	-0.046527572
216	0xbc8dd4e8	-0.017313436
217	0xbccf2404	-0.025285728
218	0xbceed07c	-0.029152147
219	0xbd696154	-0.056977585
220	0x3d3487e4	0.044074908
221	0x3d691aa8	0.056910187
222	0xbd273a28	-0.040826946
223	0xbd069060	-0.03285253
224	0xbca81420	-0.020517409
225	0x3cb5a7d4	0.022174753
226	0x3d6dbc96	0.058041178
227	0xbcf453fc	-0.029825203
228	0x3d5990ae	0.053116493
229	0xbccc5ddc	-0.0249471
230	0x3d4c8d7e	0.049939625
231	0xbc930e84	-0.017951258
232	0xbc426e08	-0.011867054
233	0xbd7584c4	-0.05994107
234	0xbc161f98	-0.009162806
235	0xbd0cf044	-0.034408823
236	0xbb54ff60	-0.0032500848
237	0xbd446b4e	-0.047953896
238	0x3c78da78	0.015188806
239	0x3ccd9fec	0.02510067
240	0xbc9c0b04	-0.019048221
241	0x3b74c640	0.0037349612
242	0x3d763b80	0.060115337
243	0x3c635c90	0.013877049
244	0xbd579870	-0.05263561
245	0xbaae6f00	-0.0013308227
246	0xbca85c00	-0.020551682
247	0xbc84fb98	-0.01623325
248	0xbccafcc4	-0.024778731
249	0x3ce927c0	0.028461337
250	0xbc6d1c40	-0.014472067
251	0x3d004c5e	0.03132283
252	0x3d3c5e54	0.045988396
253	0xbc7b0000	-0.015319824
254	0x3c88c010	0.016693145
255	0x3bf11770	0.0073575303
